cifar_net.pth (torch, 251604 bytes, 10 tensors)

conv1.weight f4 [6, 3, 5, 5]
000000 17 b4 c6 3d cd 31 a5 bd e0 e3 99 3d 5e ee aa bd
       0.09702318 -0.08066139 0.07514167 -0.08346246
000010 18 d4 03 3d 38 c2 13 3d 53 0d 8c bd 03 62 c1 3d
       0.03218469 0.036073893 -0.06838479 0.094425224
000020 2e 45 57 bc c1 55 ab bc c6 74 4b 3d d6 c4 d4 3c
       -0.013139052 -0.020914914 0.04967191 0.025972765
000030 e7 33 d6 3d 6a 0a f1 3d db e1 e4 bb ae a3 77 3d
       0.10459118 0.117695644 -0.006984932 0.06045883
000040 42 5e 1e bd 48 52 4e 3d 48 54 f4 3d f5 a4 c4 3b
       -0.03866411 0.05037144 0.11930138 0.0060011097
000050 15 4b b2 bd 62 7a 89 bd 7c b6 5e 3d 98 bb 6f bb
       -0.08705727 -0.06712796 0.05437325 -0.003658032
000060 9c 9d 55 bd 5a b0 01 3c 57 6d a8 bd 2f 64 28 3d
       -0.05215226 0.007915581 -0.0822398 0.041111168
000070 5c bc 14 bd b5 cd a7 bc 4a b3 da 3d 4b 5f 0f 3e
       -0.036312446 -0.020483831 0.10678728 0.14001195
000080 6f 64 aa bd 1a e7 fe bc 32 a8 d0 3d 70 d0 5d bc
       -0.083199374 -0.031116057 0.10188331 -0.013538465
000090 d8 00 56 bd 5a 55 1a 3d 20 ba 01 3e ca aa 01 3c
       -0.0522469 0.037679054 0.12668657 0.007914254
0000a0 d3 0d 48 bd 85 6c 30 bd c6 23 e8 3d a3 91 c9 bd
       -0.04884131 -0.043072242 0.11334948 -0.09842231
0000b0 fd 2c 3d 3d c2 a9 9f 3c 4a 8a b6 3c c1 7c 3b bb
       0.046185482 0.019490127 0.022282738 -0.0028608295
0000c0 a9 86 b2 bc 32 4b 9f 3d 7c f5 0b 3e 7d f5 f9 3b
       -0.021792727 0.07778014 0.13667864 0.0076281414
0000d0 07 0f 5a 3c b6 dc 0e 3e 8c 37 2b 3e 74 7a 40 3d
       0.013309247 0.13951382 0.16720408 0.04699178
0000e0 ec 14 83 3d e4 b9 cd 3d db e4 f7 3d ab 8d 24 3d
       0.06400475 0.100452214 0.121041976 0.040174168
0000f0 80 f4 f0 3c b3 18 35 3e 3f c1 97 3d eb 21 f1 3d
       0.029413462 0.17685203 0.07409906 0.117740475
000100 e2 05 a2 3d 38 dd 06 3c 0c 37 81 bc 97 c7 f2 3d
       0.07911278 0.008231454 -0.015773319 0.11854475
000110 80 c7 1d 3d a9 55 cf 3d fc 1a a8 3d 14 7d 02 3d
       0.038520336 0.1012376 0.08208272 0.031857565
000120 d7 41 21 3e 87 06 fb bc 8d 32 1a 3e 77 1f 6d bd
       0.15747772 -0.03064276 0.15058346 -0.057891335
000130 d7 38 58 3d a8 ff df 3c 76 3e b2 3d 1b be c8 bd
       0.05278858 0.027343586 0.0870332 -0.09801885
000140 71 65 95 3d 83 65 15 bd 5d bd 5b 3d cc a7 68 bd
       0.07294739 -0.036473762 0.053647388 -0.05680065
000150 2f a9 61 3b 01 0b c1 bc 46 28 3e 3d 95 18 9d bc
       0.0034433117 -0.023564817 0.046425126 -0.01917676
000160 b2 fd b4 bd 89 82 4d bd bc 27 db bd bf 31 c6 3a
       -0.08837451 -0.050173316 -0.10700938 0.0015121027
000170 ad 4a a4 bb 3b e8 18 3d 93 e1 1b 3d 4b 8f 4a bd
       -0.005013785 0.037330847 0.03805692 -0.04945306
000180 2d 05 4a 3d a5 79 d4 3d c8 b5 b7 3d ea 67 3c bd
       0.049321342 0.10374764 0.08970219 -0.045997538
000190 92 25 04 3c a8 7a 01 bd 07 65 b3 bc b6 b6 03 3b
       0.008065598 -0.031611115 -0.02189876 0.0020097918
0001a0 48 64 94 bd 06 58 88 bc 2f 86 d5 3c 0d 2f e3 3d
       -0.0724569 -0.016643535 0.02606496 0.110929586
0001b0 de 00 9f bc 1c 8b 09 bc c2 22 ae bd 24 a1 c1 3d
       -0.019409593 -0.008394983 -0.08502723 0.09454563
0001c0 06 3c e7 3d 9c ba e2 3d 7e ed 18 bd 4f f8 3a bc
       0.112907454 0.11070749 -0.037335865 -0.01141174
0001d0 d9 95 3d bd 6d 57 3d 3d a9 b8 ec bc 08 c5 a4 3d
       -0.046285484 0.046225954 -0.028896647 0.08045393
0001e0 ca eb 9d bd fc fd d6 3c 40 49 eb bd bf 26 8d 3d
       -0.07710989 0.026244156 -0.11488581 0.06892156
0001f0 d6 df aa bd 99 d8 97 bb ea ec 80 3c 0b 44 28 3e
       -0.083434746 -0.0046339747 0.01573797 0.16432206
000200 12 70 3c 3e 0c 35 20 3e c0 ad 96 bb 77 46 12 3e
       0.18402126 0.15645236 -0.0045983493 0.14284693
000210 d2 1e e0 3c 22 8f 16 3d 2b a6 e6 39 95 e8 f8 3a
       0.027358446 0.036757596 0.00043992823 0.0018990213
000220 b0 6d e6 3c 7a ca 09 3e f5 08 f2 3b 3e 33 95 3d
       0.028128475 0.13456145 0.0073863217 0.07285164
000230 b2 ce 0b 3e 84 8c 2f 3e 25 af 34 3e eb 2b f8 3c
       0.13653067 0.17143446 0.17644937 0.03029438
000240 d0 8a 03 3d 26 77 95 3d 40 e7 2f 3c af db 1a 3e
       0.032114804 0.072981164 0.010736287 0.15122865
000250 ef 52 05 3e 08 97 5c bd b9 4e f3 3d 27 7c e4 3d
       0.13019918 -0.053854972 0.118802495 0.11156493
000260 f8 09 01 3e c8 69 ab 3d c4 de e8 3b 3c 0c 91 3d
       0.12601459 0.083697855 0.007106634 0.07082412
000270 5d 03 6d bb a7 d7 49 3e a5 cb 40 3d b0 71 7c 3d
       -0.0036165335 0.19711171 0.04706921 0.06163186
000280 2f d2 03 3c 4a d6 fc 3c aa ab 21 3d e5 b3 82 3c
       0.008045717 0.0308639 0.039470352 0.015954921
000290 1a 26 d7 bd 9d 99 34 be 06 fc cf 3c a1 3e f4 bd
       -0.10505314 -0.17636724 0.025388729 -0.11926008
0002a0 4c 11 b0 3d 82 0b db bd 12 ba 33 be 3d 79 ec 3c
       0.08597049 -0.10695554 -0.17551449 0.028866405
0002b0 64 de 01 3b fb 5e 0d bd e6 7e 04 bd 38 ac 09 3e
       0.0019816393 -0.03451441 -0.032347582 0.13444602
0002c0 62 d0 9d bc 8b ec 46 3d 1d 78 cf 3d b4 c3 9c 3d
       -0.019264404 0.04856543 0.10130332 0.07654515
0002d0 08 d3 21 3d 3d 9e 88 3d 4d 38 a6 3d 33 91 17 3d
       0.039507896 0.066708066 0.08116207 0.037003707
0002e0 97 88 94 ba 25 c9 23 be 5e 78 25 be 23 d1 18 be
       -0.0011332211 -0.159947 -0.16159198 -0.1492353
0002f0 32 2c b7 3c b8 73 5b 3d a6 eb 7b bd c7 2b 4b be
       0.022359941 0.053577155 -0.06150403 -0.19840918
000300 d3 ef 35 be 65 16 36 3c cb 5e a8 bd 89 b8 aa bd
       -0.17767267 0.011113738 -0.08221205 -0.083359785
000310 de 60 8e bd da 0f a6 bd 08 eb 09 be 50 9a 74 3c
       -0.0695207 -0.08108492 -0.13468564 0.014929369
000320 13 37 89 bd 45 42 3a 3d 24 55 00 3e f3 28 1d 3d
       -0.06699958 0.045473356 0.12532479 0.03836913
000330 d8 77 16 3e 36 ba d0 3b 0e 6f 85 3d 90 1c 25 bd
       0.14694154 0.0063698543 0.065153226 -0.040310442
000340 4d a3 10 bc 0e f0 11 3e ec 1f 2e bd 69 1e 1d bd
       -0.008827996 0.1425173 -0.04251091 -0.03835908
000350 ed 4b 41 3d a7 04 c1 bd 38 2f 24 bd fe 90 57 3c
       0.04719155 -0.094247155 -0.040084094 0.013157127
000360 9d b7 61 bd af 75 8d bd 75 28 b2 bd 29 1d 96 bd
       -0.055106748 -0.06907212 -0.08699123 -0.073297806
000370 38 f6 83 3c 5c 10 fd bc 6d e7 22 3d fc 13 8b 3d
       0.016108617 -0.03089159 0.039771486 0.06790921
000380 d8 76 be bd bf dc 10 3e 91 f5 0c 3e ee 48 bb 3c
       -0.093000114 0.14146708 0.13765551 0.022861924
000390 f8 7f 3a 3e 68 2a f5 3d 1a 29 d5 3b 55 56 71 3e
       0.18212879 0.11970979 0.006505144 0.2356809
0003a0 dd 8f 4c 3e 24 e8 5d 3e b1 b0 45 3d 07 5d d9 3d
       0.19976754 0.21670586 0.04826421 0.10613447
0003b0 cf 94 b4 3d 1c e4 bd 3d b5 14 a0 ba 91 6b 60 3d
       0.088174455 0.09272024 -0.0012213202 0.054790083
0003c0 d1 04 4f be f8 70 f1 bd fa 0b bb bd 78 c0 c4 bd
       -0.20216681 -0.11789125 -0.09133144 -0.09607023
0003d0 5b a2 1a be 4a 5e 20 be 2d 9d 14 bd b9 31 40 bb
       -0.15100996 -0.15660968 -0.036282707 -0.0029326512
0003e0 12 65 99 bd 20 52 28 3d d8 30 b2 bd a8 28 ca 3d
       -0.07489981 0.041093946 -0.087007225 0.09871036
0003f0 c5 86 a7 3c e6 93 97 3b e9 1b 19 3d 9c ab 47 bd
       0.020450005 0.004625785 0.037380133 -0.048747644

conv1.bias f4 [6]
000000 25 ac b4 3d 6f 69 85 3e d8 9e 65 bd e1 2a f3 bd
       0.088218965 0.26057002 -0.05605969 -0.11873413
000010 2e 50 6b 3e b7 24 b0 3e
       0.22979805 0.3440301

conv2.weight f4 [16, 6, 5, 5]
000000 77 58 5c bd e8 8f 1a bd 94 1a a1 bc cf 80 7d bd
       -0.053795304 -0.037734896 -0.019665994 -0.06189042
000010 95 12 68 3c bb 71 32 bd 3d 28 5b 3d 5a ee bd bc
       0.014164587 -0.043565493 0.05350517 -0.023184944
000020 78 ce e1 3c d5 44 13 bd f5 67 d5 3c 0a d2 9f 3d
       0.027564272 -0.035954315 0.026050547 0.07803734
000030 29 7b 76 3d fc d6 46 3b e2 0c 1c bd 89 ac 99 3d
       0.06017605 0.0030340543 -0.038098224 0.075036116
000040 9a 4d 5c 3d b4 e9 0c 3d 34 d5 8d bb ef d4 df 3c
       0.053784944 0.034402564 -0.0043283943 0.027323214
000050 f5 a6 2a 3d 9d 61 37 3d 7e 2a f0 bc 03 be 39 bd
       0.04166313 0.044770826 -0.029317137 -0.045347225
000060 c3 df 96 bc bf a1 03 3d e8 e8 9c bd a7 ab a0 bd
       -0.018417245 0.032136675 -0.07661611 -0.0784524
000070 1b 7d 9f bc 12 66 05 3d 3b ab dd 3d 10 68 7e bd
       -0.019468835 0.032568045 0.10823675 -0.06211096
000080 f7 3b 9d bd b3 8b 42 3d 7d 89 59 bd ef ed 9e 3d
       -0.07677453 0.04749651 -0.053109635 0.07760226
000090 36 47 ca bc af de 98 bd 94 f9 5b 3c ba de a2 bd
       -0.02469216 -0.074643485 0.013426203 -0.07952638
0000a0 f1 bc 15 3d f8 f3 a1 3c 0e 6a 0d bd d2 d7 42 3d
       0.03655714 0.019769654 -0.03452497 0.047569104
0000b0 cc 86 81 bd cd 4d d9 3c 50 f2 09 3d af dc 74 bd
       -0.063245386 0.026526356 0.033678353 -0.059780773
0000c0 d6 7e 88 bd 76 53 5f 3d 66 ed 9c bc 34 a7 e2 bb
       -0.06664817 0.054522954 -0.01915617 -0.006916905
0000d0 95 c8 2e 3d 95 5c 6b bd e9 2b 30 3d 31 3a 96 bd
       0.04267176 -0.05746134 0.043010626 -0.07335318
0000e0 6d eb 84 3d 8e 06 ec 3c 61 35 5d 3d af 82 e4 3b
       0.064902164 0.02881172 0.054005984 0.0069735865
0000f0 fd 1e 86 3d 34 70 54 bd 8e d5 a4 bd bb 48 14 bb
       0.06548879 -0.051864818 -0.08048545 -0.0022626359
000100 bf 6e 35 bd a0 02 83 3d 5a e0 2a 3d 0c ae 0f bd
       -0.04429507 0.06396985 0.041717865 -0.035078093
000110 93 ca 80 bd 62 64 3d 3d 8e ab 6f bc 05 05 29 3d
       -0.06288638 0.04623831 -0.014628304 0.041264553
000120 62 cc 09 3d 8b 50 9d bd 2b 94 6a 3d d0 86 63 bc
       0.03364218 -0.07681378 0.05727021 -0.013887122
000130 2b 20 f9 3c 8b 87 80 bc 15 18 02 bb 12 1e 5e 3b
       0.030410847 -0.015689632 -0.001985078 0.0033892435
000140 35 e3 7a bd ed 2d f6 3c 40 7c 29 bc ac 81 9e 3d
       -0.061251838 0.030051196 -0.010344565 0.07739577
000150 b6 15 a5 bc a7 15 84 3d f3 63 73 bd 39 9c 45 3d
       -0.020151954 0.06449442 -0.05942149 0.04824469
000160 b5 e4 83 bd cb fa 15 bd 11 e9 d7 3c 0c bf 2b bd
       -0.06440107 -0.036616128 0.026356252 -0.041930243
000170 83 7c d0 bd db c4 71 bd d8 1f e3 bc a0 67 ec bb
       -0.10179999 -0.059025627 -0.027725145 -0.0072145015
000180 42 14 89 3d 9e 28 39 bc 38 5e 88 bb 79 99 0a bd
       0.06693317 -0.011301188 -0.0041616224 -0.03383777
000190 6e d9 c7 3d ef 74 b6 3d 1a 17 74 3c 62 f6 fb 3d
       0.09758268 0.08909022 0.014898086 0.12302853
0001a0 8b df 26 3e 42 36 a8 3d 98 22 85 bc 00 73 2e 3e
       0.16296212 0.08213474 -0.016251847 0.17036057
0001b0 e5 f8 79 3d 10 e4 d7 3d 2c 78 1e 3d b0 e7 c6 bc
       0.06102838 0.10541546 0.038688824 -0.0242804
0001c0 59 dd fc 3d bd c6 a0 3d 08 a9 50 3d dc 30 a6 3d
       0.12346906 0.07850406 0.05094245 0.08114788
0001d0 4f 79 c1 3d 6d da c5 3c 7a da 7b 3d 19 7f 30 3e
       0.09446966 0.024152005 0.061487652 0.17235984
0001e0 49 1b 9e 3c 47 6a e7 3d e5 fd f1 3d 1a 1e f5 3d
       0.01930012 0.11299568 0.11816005 0.11968632
0001f0 2c 98 3f 3e 69 89 c9 bd ce 6d d8 bd c6 3e c6 bd
       0.18710393 -0.09840662 -0.105678186 -0.09679942
000200 90 d9 83 3c 58 da 76 3b 32 f7 f2 bd 68 08 04 be
       0.016094953 0.0037666764 -0.11863555 -0.12893832
000210 fc 55 0a be fd 2b ae 3a db 81 29 bc 37 9e 76 bd
       -0.13509363 0.0013288256 -0.010345901 -0.06020948
000220 47 00 b7 bd ea 77 5c bc 40 92 ee bd dd 03 0b 3c
       -0.089356 -0.013456324 -0.11648989 0.008484808
000230 67 18 0e 3d c0 0c 67 bd c3 1e ee bd e8 ee da bd
       0.03469124 -0.056408644 -0.11626961 -0.10690099
000240 e6 6b b8 bd bc b5 08 bd 0f cd 28 bd 5a 12 81 bc
       -0.09004955 -0.03337644 -0.041211184 -0.015755821
000250 8f e8 e8 3c 01 80 d3 bd e1 1d f2 bc 66 06 83 bd
       0.028431205 -0.10327149 -0.029555263 -0.06397705
000260 b2 5b d9 bc 43 c8 b5 bd cd 0e ad 3c 63 a6 2a bd
       -0.026532982 -0.088760875 0.021125222 -0.041662585
000270 b7 5a 37 3d ef 6c 98 bd 78 18 61 bd 6c ca 76 3d
       0.044764247 -0.074426524 -0.054954976 0.06025164
000280 b3 ec 39 bc b2 63 8f 3b 23 82 84 3d 48 0d 90 bc
       -0.011347937 0.0043758983 0.06470134 -0.017584458
000290 43 dc 24 bd 6d 15 1a 3b 83 31 8b 3d d7 24 b6 ba
       -0.04024912 0.0023511306 0.06796553 -0.0013896477
0002a0 09 4d 89 3d ab 7e 65 3b 88 71 58 3d fe b3 c4 3c
       0.067041464 0.0035018127 0.052842647 0.024011608
0002b0 36 7e 53 bd 95 f8 82 3d ce 0e b2 3c c6 84 86 3a
       -0.051634036 0.063950695 0.021735575 0.0010262958
0002c0 c4 97 67 3d 0f ab bf bd aa e8 4f 3c d4 7e 44 bd
       0.05654122 -0.09358799 0.012689749 -0.047972515
0002d0 5e 90 94 3b 3d 2b 98 3d 67 05 25 3d 1a 5e 9e 3b
       0.0045338115 0.07430122 0.040288355 0.004832995
0002e0 c6 c0 4e bd ad 88 32 bc 19 5e 8d 3d 04 7e df 3b
       -0.05047681 -0.010896844 0.06902713 0.006820442
0002f0 bf 6b 8f bc 81 78 59 3d 30 74 96 3c bf 12 26 3c
       -0.017507432 0.053093437 0.01836595 0.010136305
000300 e2 6d 6a bd 49 e1 65 bd eb 86 66 3d ec 76 8d bd
       -0.0572337 -0.05612305 0.05628101 -0.06907448
000310 f0 38 41 bd 08 73 d0 bc a1 47 6e 3d 3d fc 8d 3c
       -0.04717344 -0.025445476 0.05817378 0.01733219
000320 60 c8 08 bc 50 8f a0 bd 47 97 36 3d 9a 74 14 ba
       -0.008348554 -0.07839835 0.044577863 -0.0005663127
000330 a4 7a 4c bd 3b ec 85 3d d5 34 df bc ea 20 8c 3d
       -0.049921647 0.06539198 -0.027246872 0.06842215
000340 d0 d1 16 bd db 09 71 3c e1 b5 09 bc ab 52 a3 3d
       -0.036821187 0.014711822 -0.00840518 0.07974752
000350 c8 e6 39 3d 53 c6 0b bd f1 97 1b bd 52 77 57 3d
       0.045386106 -0.034124684 -0.0379867 0.052604027
000360 fe f9 d2 3c 29 53 87 3d 19 b7 87 3d 3b ef 3f bc
       0.025753971 0.066076584 0.0662672 -0.011714752
000370 db c6 84 3d 26 b4 74 3d 58 16 e9 bb 91 71 92 3b
       0.06483241 0.059742115 -0.0071132593 0.0044691046
000380 d2 dd 9b 3d eb bf 54 3d 47 4c 91 3d 3d 99 de 3c
       0.07610668 0.05194084 0.07094627 0.02717268
000390 18 37 db 3c 0c 98 8c 3d 3c 57 3d bd 68 ea a6 3d
       0.02675967 0.06864938 -0.04622577 0.08150178
0003a0 8e 10 8b 3d 79 bd f7 3c 35 18 d3 bc cf 4d e6 3b
       0.06790267 0.030241715 -0.025768379 0.0070283185
0003b0 88 53 80 3c eb 06 86 3b 37 12 4a bd 5b 27 8b bd
       0.01566483 0.00409018 -0.049333777 -0.06794616
0003c0 86 e6 53 3d ea 63 97 3d a8 e0 fe 3b 43 3e 49 bd
       0.051733516 0.07392104 0.007778246 -0.049131643
0003d0 e6 70 83 bd 8f 62 64 bc d9 82 dc bc 81 e8 39 3d
       -0.06418018 -0.013939514 -0.026917862 0.04538775
0003e0 15 98 9e 3d a6 9b 8d 3d d3 2a 89 3d 26 97 f6 3b
       0.07743851 0.06914453 0.06697621 0.0075253425
0003f0 60 c7 c7 3d a6 a2 5d 3d 68 df 0e 3e 55 5b 45 3d
       0.09754825 0.05411019 0.1395241 0.048182804

conv2.bias f4 [16]
000000 b4 5f 71 3e 7b 58 c2 3d e1 6f 8f bc 01 c9 6f 3b
       0.23571664 0.094895326 -0.017509403 0.0036588314
000010 3e 6b f7 3c 6e 1c 17 3d a7 01 27 be 86 cf ca 3d
       0.030202504 0.036892347 -0.16309224 0.09902863
000020 07 7f 71 bd 12 cd 1f 3e 6e af f7 3c de fb 71 bc
       -0.058959033 0.15605572 0.030235019 -0.0147695225
000030 8b 2f 48 3e 9a 9a 6f bc ef fc 5c bd 61 ef aa bd
       0.19549386 -0.014624262 -0.053952154 -0.08346439

fc1.weight f4 [120, 400]
000000 70 c3 b6 3c 31 9e a8 bb 43 cf 02 bd b0 b0 23 bd
       0.022309989 -0.005145811 -0.03193594 -0.039963424
000010 95 d8 0b bc 1a 8c d1 bc e0 ee 30 3d 5d 1b 08 3d
       -0.008535524 -0.025579501 0.04319656 0.03322922
000020 43 64 46 3d 9e 84 47 3d 85 ee 58 bc 38 74 fc 3c
       0.04843546 0.048710458 -0.013240461 0.030817136
000030 ac 73 92 3a 58 81 14 3d ea ac a1 bc ec 09 8c bc
       0.0011173389 0.036256164 -0.019735772 -0.017094575
000040 b2 bf 98 b9 ae ff 7f 3c da e4 2a 3d cb 73 a1 3c
       -0.00029134523 0.015624924 0.041722156 0.019708535
000050 08 24 64 3a cf 2a db bb 6e 3c 8e 3b 6e cf 6d 3d
       0.0008702879 -0.006688453 0.0043407 0.05805915
000060 1c 53 63 3d ad 67 53 3d 01 36 b0 3c 9a d7 45 3c
       0.05549918 0.051612545 0.021510126 0.012075329
000070 a1 7d dc 3b b9 59 cf 3c bb 67 22 bd 1e a7 a3 bc
       0.0067288433 0.025311338 -0.039649706 -0.019977149
000080 24 8b e4 3b e1 8f f1 3a 23 31 0b bd 24 e4 d9 bc
       0.0069745947 0.001842972 -0.033982407 -0.026598044
000090 26 f4 2d bd c9 a0 f4 3b 81 98 b5 3b ba 18 ab 3b
       -0.042469166 0.007465456 0.0055418615 0.0052214535
0000a0 97 e7 2b 3d 26 3b 16 3d 39 bf 37 bd 51 58 11 bd
       0.04196891 0.036677502 -0.0448601 -0.035484616
0000b0 12 04 d2 bc ba 55 f1 3c 20 5f 44 3d 8f ba 2d bd
       -0.025636707 0.029459823 0.04794228 -0.042414244
0000c0 35 ac 2b 3d a3 16 89 3c 7e 2f a9 bc eb ce 91 3a
       0.041912276 0.016734427 -0.020652529 0.0011124288
0000d0 f9 1b 62 3d c2 2b 93 bc 96 43 28 3c 04 72 27 bd
       0.055202458 -0.017965201 0.01027002 -0.04088022
0000e0 ad 70 fe 3c bf 36 d2 bc 9a 11 52 3c 2c e4 95 bc
       0.031059587 -0.02566087 0.012821579 -0.018297277
0000f0 57 2b 82 bc 77 82 49 bd b4 3f 2e bd 8f 7e 5f 3c
       -0.015889807 -0.049196687 -0.04254122 0.013641014
000100 45 8d 24 bc b2 40 ad 3a d7 63 6d 3b ee b7 07 bd
       -0.010043447 0.0013218133 0.003622284 -0.033134393
000110 29 53 95 bc 4a 3a 42 3d c0 a1 2b 3d f9 bf 13 bd
       -0.01822813 0.04741887 0.041902304 -0.03607175
000120 e4 38 fe bc d1 ae 34 bb 62 60 a0 bc a3 ed 99 3c
       -0.031032987 -0.002757002 -0.019577209 0.018790072
000130 28 82 ce 3a 3a 22 25 bb 88 9a e7 bc 9c 9d fe 3c
       0.0015755342 -0.0025197403 -0.028271928 0.031081013
000140 04 27 69 bc 70 ab c2 3c 97 b9 55 bc fa 20 ff bc
       -0.014230493 0.023763388 -0.013044736 -0.031143654
000150 d0 fb e4 bc 79 f5 2f bd 6f 52 b6 3c e4 fb 14 bd
       -0.027952105 -0.04295871 0.022256104 -0.036373034
000160 99 85 63 3c 26 fa 42 3d f2 00 17 3d 7a 4a 2a 3c
       0.013886833 0.04760184 0.036866136 0.010393733
000170 e8 f6 ae bc e4 34 14 3d 98 32 33 3d 3b b1 db bc
       -0.021357968 0.036183253 0.04374942 -0.026817909
000180 72 b9 90 3c 71 bf b0 bc b4 a6 67 3d 87 a5 11 3d
       0.017666552 -0.021575661 0.056555465 0.03555825
000190 9c 42 06 bc 53 10 06 3c a3 48 b4 bc 69 51 f9 bc
       -0.008194592 0.008182603 -0.022007292 -0.030434327
0001a0 c6 62 5d bb 80 97 29 bd 1d 33 e7 bc 81 fd c3 bc
       -0.0033780797 -0.041404247 -0.028222615 -0.023924591
0001b0 69 ce c7 bc 48 be a0 3c 54 7c 08 bd 21 8b 57 bc
       -0.024390416 0.019621983 -0.033321694 -0.0131557295
0001c0 a7 69 4e bd d1 ae 39 3c 9f 68 1e 3d b0 b4 44 bd
       -0.050393727 0.011333183 0.038673993 -0.04802388
0001d0 b7 36 5b bd af 06 e1 3b d9 4e 70 bd e9 c1 75 3c
       -0.053518977 0.006867252 -0.058668945 0.014999845
0001e0 2d 03 22 3d b4 af 4b bd 6b 9e 0e bd 6b 14 c7 3c
       0.03955381 -0.04972811 -0.034819048 0.024301728
0001f0 6e 3b f0 3c a4 97 37 bc f1 d0 50 3d 40 aa 97 bb
       0.029325213 -0.011205588 0.050980512 -0.0046284497
000200 21 09 22 bd df b9 04 bd f7 bf a9 3c 07 02 4a bc
       -0.039559487 -0.032403823 0.020721419 -0.012329585
000210 5e 2d 38 3d 82 48 f8 3c 3a d0 1b bd 69 2e a2 bb
       0.04496514 0.030308012 -0.038040377 -0.00494938
000220 a4 4b 31 bd d1 60 33 bd 6c d3 d2 3c 58 79 50 bc
       -0.043285027 -0.043793503 0.02573558 -0.012724243
000230 00 1e 38 bd 82 79 27 bd 02 06 bb bc 1c 66 60 bb
       -0.044950485 -0.040887363 -0.022830013 -0.003424055
000240 6a 3a e6 bb 4c ad 50 bd d8 00 5c bd 8f 4a e8 3c
       -0.0070260065 -0.05094652 -0.053711742 0.028355865
000250 8a cc 10 3d b4 b5 8c bb ae 41 04 3d bb ef 03 3c
       0.035351314 -0.0042941216 0.0322892 0.008052762
000260 86 31 4d 3d 56 ec b2 3c 3c 4e 48 3d 5f 79 12 3d
       0.050096057 0.02184121 0.048902735 0.03576028
000270 73 0e 19 3c 58 9a ff 3c f3 f5 8f bc 51 47 37 bd
       0.009341824 0.031201527 -0.017573332 -0.044745747
000280 90 ea c4 bc bd 97 00 bd 05 ec 40 bd 5b 7e cc bc
       -0.02403763 -0.03139471 -0.047100086 -0.024962595
000290 89 2d 95 bb 1e 9e 91 bc 80 34 07 3d f4 eb 5a bc
       -0.0045525474 -0.017775591 0.033009052 -0.01336192
0002a0 de 80 f2 3c ab e0 fd bb bb 5b 1f 3d 38 0e f4 3c
       0.029602464 -0.00774773 0.03890584 0.029791936
0002b0 41 f1 cc 3c 3f 33 1f 3d 0d 14 f4 3c c0 ae de 3c
       0.025017383 0.03886723 0.029794717 0.027182937
0002c0 8f 0e 8e 3c 95 5a a2 bc f1 54 dc ba 7f 32 cb bb
       0.017340926 -0.019818584 -0.0016809982 -0.006201088
0002d0 a0 06 19 3d 9e a1 23 3c 0d eb 25 bc 5c 91 74 bb
       0.037359834 0.009987263 -0.010126841 -0.0037318086
0002e0 ea 7a 6d bc 54 a4 b7 3c 54 e0 5f bd 69 6c 1f 3d
       -0.014494637 0.022417225 -0.054657295 0.038921747
0002f0 aa ea e6 bc 43 13 18 bd 28 33 d1 3c ac 26 d8 bc
       -0.028188068 -0.037127744 0.025537089 -0.026385628
000300 52 8c fd bc 62 3c 1d bd ed ff c4 bc 99 f2 92 bc
       -0.030950699 -0.038387664 -0.024047816 -0.017937945
000310 56 c5 16 bc ea e5 a8 3c 6c a2 c3 3b dc 51 b1 3c
       -0.009202322 0.020617444 0.00597029 0.021645479
000320 4d ca 6e 3c 79 81 26 3d 7c 36 40 3c 7b 83 c2 3c
       0.014574599 0.04065082 0.01173174 0.023744335
000330 f0 c5 56 3d c7 74 37 bd 8c 6b 08 3d 71 bf 2b 3a
       0.05243486 -0.044789102 0.03330569 0.00065516593
000340 1c 7e ce bc 29 e7 15 3d d5 2e df 3c b7 7b dc bc
       -0.025206618 0.036597405 0.027244011 -0.02691446
000350 dd a8 91 bc 2c 20 0b bd cf 46 f3 3c dc 52 33 3b
       -0.017780716 -0.03396623 0.02969685 0.002736262
000360 41 ba 1b bd 45 b8 ba ba 27 c6 3e 3d f1 8a bd bc
       -0.038019422 -0.001424559 0.04657569 -0.023137541
000370 a5 dd f7 3b a6 9f 68 3d 6a 98 1a 3c c8 2d eb bc
       0.007564264 0.056792878 0.009435752 -0.028708354
000380 22 a3 9e bc 16 78 8b bc 81 56 67 3d 78 1a fa 3c
       -0.019364897 -0.017025035 0.05647898 0.0305302
000390 00 d3 01 bd e1 29 d3 bc b6 db 26 3d 6a df 8e bc
       -0.031695366 -0.025776805 0.040736876 -0.017440517
0003a0 ef c3 af 3c 79 51 1e bd 1c e1 48 3d b1 4b 2f bd
       0.021455733 -0.038651917 0.049042806 -0.042796794
0003b0 97 eb b3 3c db af 1f 3c 4f ad fc bc b0 9b fc bc
       0.021962924 0.009746517 -0.030844359 -0.030835956
0003c0 2b 86 52 bd f0 75 f4 3c 88 a7 16 bd 6d 84 3b bd
       -0.051397484 0.029841393 -0.036780864 -0.045780588
0003d0 d5 ef 0d bd 59 fe 53 bd b4 36 15 3c 09 01 80 bd
       -0.03465255 -0.051756237 0.0091072805 -0.062501974
0003e0 41 80 d3 3c ef 96 84 bc 0c 29 08 bd ca 39 ee 3b
       0.025817992 -0.016185252 -0.03324227 0.0072700726
0003f0 75 07 04 bd 8a 51 7e 3b d8 b2 e6 3c 18 b5 04 bd
       -0.032233674 0.0038805925 0.028161451 -0.032399267

fc1.bias f4 [120]
000000 d2 7d 40 3c e8 91 ce 3b d5 15 22 3c cf 44 54 3c
       0.011748748 0.0063040145 0.0098929005 0.012955858
000010 36 81 14 bc 53 4f ae 3d a0 16 ee bc bb 7a ea bc
       -0.009064009 0.08511224 -0.029063523 -0.028622976
000020 d2 30 b0 3d a0 a5 ab bc b2 95 8d 3c 83 a3 31 bd
       0.08603062 -0.020953 0.017283294 -0.043368828
000030 1d 86 86 bc 48 78 ce bc 35 b8 81 bc 34 09 6e 3c
       -0.016421372 -0.025203839 -0.015834907 0.014528561
000040 89 82 4a bc 38 9e 46 bd 6f 04 06 bd f3 ed 5a 3c
       -0.012360224 -0.048490733 -0.032719072 0.013362396
000050 0f 86 73 bc 5a 6b f4 3c 7b f1 aa ba 2e ab cf 3c
       -0.014863505 0.029836345 -0.0013041937 0.02535018
000060 8f e6 18 3d c7 ae 52 bd a0 1c 72 bb d4 33 5d bc
       0.037329253 -0.051436212 -0.0036943331 -0.013501126
000070 34 c2 d4 bc a8 81 7d ba 34 d6 c3 bc ee be 67 bb
       -0.02597151 -0.00096705044 -0.023905851 -0.0035361606
000080 bc c8 41 3c 4b 1b 31 3d f0 c9 5b 3b cb 88 9a bc
       0.011827644 0.04323892 0.0033537112 -0.018864056
000090 bd b6 b9 3c 02 a9 84 bb 21 2e db bc ac 24 83 bb
       0.022670144 -0.0040484676 -0.026755394 -0.0040021744
0000a0 81 7c a5 bb 9a 0b 31 bd 99 c8 51 bb 12 9a c5 3c
       -0.0050502424 -0.043223955 -0.0032010435 0.024121318
0000b0 03 4f 06 3d 3d ee 22 bd 98 63 4a 3c 1f 20 7e 3c
       0.032790195 -0.039777983 0.012352847 0.015510588
0000c0 57 93 3b bc e4 b1 54 bd a0 81 02 bd d0 5a a7 3c
       -0.011448703 -0.051927462 -0.0318619 0.020429045
0000d0 bf db f3 bc 35 66 4c bc 86 4c d7 bc a1 43 d8 3a
       -0.029767869 -0.01247554 -0.026281606 0.0016499647
0000e0 14 15 f3 bc fe 3e be bd 38 10 88 3c f5 03 93 bc
       -0.029673137 -0.092893586 0.016609296 -0.017946223
0000f0 f9 58 e8 bb da f4 07 bd 6f 78 f8 bc b4 8f 3f 3d
       -0.0070906845 -0.033192493 -0.030330865 0.046767905
000100 25 29 07 3d 17 45 83 ba 6b 56 4b 3c 3e a0 04 3c
       0.032998223 -0.0010015097 0.01241074 0.008094845
000110 83 56 aa bc 95 36 2f 3d 18 5f 4f bd 54 a4 eb 3c
       -0.020793205 0.042776663 -0.050627798 0.028764881
000120 27 09 e6 bc fb b3 5a bd 5d ef 1e 3d 4f b8 45 3b
       -0.028080536 -0.0533943 0.038802493 0.003016967
000130 fa a0 c6 bc 6b 36 52 bc 14 0e 9a 3b e8 7d ea 3c
       -0.024246681 -0.012830357 0.0047013853 0.02862449
000140 69 d2 d0 3c 84 5e 8a 3c 3b 40 0c 3d d8 b5 08 3b
       0.025490956 0.016890772 0.034240942 0.002086034
000150 de af f2 3c 7b 83 3a 3d 72 6b c3 bc 00 b0 69 3c
       0.029624876 0.045535546 -0.023854945 0.014263153
000160 95 ed 84 3c 77 8c 0a bd 5a 7c af bc b6 29 ab 3d
       0.01622657 -0.033825364 -0.0214216 0.08357565
000170 f5 1e ec bc be eb c9 bb d3 77 e8 3c 3e af 4d 37
       -0.028823355 -0.006162136 0.02837745 1.2259754e-05
000180 41 bc 24 3d f1 62 2b bd ba b7 26 bd 9f 7a 21 bd
       0.040218595 -0.041842405 -0.04070256 -0.03942358
000190 3e 4d 17 bd 3a 28 bf bb df 02 d7 bc 2f 50 cb bc
       -0.0369389 -0.005833653 -0.026246486 -0.024818508
0001a0 6b 18 c5 3c 87 f1 2c 3d eb c0 0e 3c 62 14 85 bc
       0.024059495 0.042222526 0.008712987 -0.01624507
0001b0 71 0a 65 3d 7c dd 84 3d 78 b2 26 bd 77 7d 3a bd
       0.05591816 0.06487557 -0.040697545 -0.04552981
0001c0 74 70 0b 3c 2f ac 32 3d 47 77 20 3c 9e b7 88 3b
       0.008510698 0.04362124 0.009794063 0.0041722795
0001d0 9e 26 53 3d c7 2d ba ba 91 70 c9 bc 97 fa 53 3d
       0.0515505 -0.0014204317 -0.024589809 0.051752653

fc2.weight f4 [84, 120]
000000 90 f6 3d 3c bc ab 1e 3d 37 6d 7f bd 24 0a 68 3d
       0.01159443 0.038737997 -0.062360015 0.056650296
000010 0d 84 8d 3d dd bf 2b bd 27 17 b4 3d 39 3d e0 3d
       0.06909952 -0.041931022 0.087934785 0.10949177
000020 ee 3e a4 bb 99 06 d5 3d 87 76 fb 3b 28 30 8c bd
       -0.0050123846 0.10401649 0.0076740417 -0.068451226
000030 af ab 8e bc 60 6e b2 bd e0 e6 9c 3d 5d 21 26 3d
       -0.01741585 -0.087124586 0.076612234 0.04055916
000040 d1 de 34 bd 71 74 32 3d 19 33 88 bd d7 6a c2 3d
       -0.044157807 0.04356808 -0.06650371 0.09493034
000050 ce cf dc 3c 9d 3c 6d bd 03 09 0c 3c 51 74 32 3d
       0.026954558 -0.057919133 0.00854707 0.04356796
000060 03 59 ce bc 9d 56 24 bd 95 d1 ad ba c9 f4 ad bd
       -0.025188928 -0.040121663 -0.0013261313 -0.08493955
000070 d0 44 d9 3d 43 03 52 3d 34 f6 6d 3d 37 b9 96 bb
       0.10608828 0.051272642 0.058096126 -0.004599716
000080 9b a5 a1 bd 3b ac 1a 3d 2d 5b 51 3c 03 f1 04 bd
       -0.07892915 0.037761908 0.012778086 -0.03245641
000090 23 ee 75 bd 2d 54 c1 bd fb f8 1c 3d 33 7f 01 bd
       -0.060041558 -0.094398834 0.038323384 -0.031615447
0000a0 ff 65 ba bd 36 ea a4 bb 59 d9 74 bc 12 ee dd bc
       -0.091014855 -0.005032803 -0.014944398 -0.02709106
0000b0 37 d5 b6 bc 38 2a b8 bc 60 38 d7 3d 1d 9f 11 3d
       -0.022318466 -0.022481069 0.105087996 0.035552133
0000c0 90 30 82 3d b3 f4 99 3d 62 51 9a 3d 4e b2 4c bc
       0.06356919 0.07517376 0.07535054 -0.012493683
0000d0 14 f8 09 3c 88 ba 0d 3e 03 f4 82 bd 66 4e 76 3d
       0.008420963 0.13840687 -0.06394198 0.06013336
0000e0 16 ad 1a bd 07 6f 84 3d 1c b3 e8 3b 34 45 66 bb
       -0.037762724 0.06466489 0.0071014296 -0.0035136463
0000f0 01 1e 73 3d e7 03 83 bd 7e de 98 3d 80 f8 0b bd
       0.059354786 -0.06397229 0.07464312 -0.034172535
000100 bb b8 a3 3b 4c 04 89 bd 08 7e ba 3d aa 3d 14 3c
       0.004996387 -0.06690273 0.0910607 0.009047905
000110 14 2f 0b 3d 90 9f 4d 3d 5e be cd 3c a0 81 86 3d
       0.033980444 0.050201 0.025115188 0.06567693
000120 ca b7 18 3d 9e c9 75 3d 9a 5b cc bb 37 3c 32 3c
       0.03728465 0.06000673 -0.0062365057 0.010878614
000130 62 8f c8 3d b0 86 02 bc d0 55 10 bd c0 a1 ee bc
       0.09792973 -0.007966682 -0.035238087 -0.029129863
000140 52 c5 50 3d 15 36 85 bd e5 80 70 bd ef 2c cd bb
       0.05096943 -0.06504456 -0.058716673 -0.00626146
000150 ce c5 90 3d 48 fa 83 3d 20 8f 19 3c b1 00 dd bc
       0.07068978 0.06444222 0.009372503 -0.026977869
000160 1d 73 a7 bd 3e 7c a4 3d 48 e4 2b 3d 46 83 b0 bb
       -0.08176253 0.0803151 0.041965753 -0.0053867428
000170 f2 30 47 bd 47 87 dc 3d d0 d1 73 3c 25 06 6a bd
       -0.048630662 0.107679896 0.014881566 -0.057134766
000180 18 73 aa bd 5d 77 69 3d f1 3f 23 3d 87 39 ab bd
       -0.08322734 0.0569986 0.0398559 -0.08360582
000190 0c c0 e1 3d 21 0e 58 bd 86 95 8b 3d 18 ac 5d 3d
       0.11022958 -0.05274785 0.06815629 0.0541192
0001a0 e3 22 b6 bd 02 25 93 bd 6e ee 87 bd 25 57 92 3d
       -0.08893373 -0.07184793 -0.06637274 0.07145528
0001b0 44 bf 7a bd 30 5e f5 bb d9 f9 e8 bc 1f 27 a9 3d
       -0.06121756 -0.0074880347 -0.02843945 0.08259415
0001c0 31 15 21 3d 3d 8d 22 3d c1 0c 52 3d 4f 50 dc 3c
       0.03932685 0.039685477 0.051281694 0.026893763
0001d0 f2 0f 7f 3d d3 35 a8 bc 0c b2 1c bd 65 51 81 3d
       0.062271066 -0.020533478 -0.038255736 0.06314353
0001e0 7f d3 96 3d fa 47 a0 3d ea 23 f0 bc 78 24 27 3c
       0.073645584 0.078262284 -0.029314 0.010201566
0001f0 08 b3 37 bb 6e 5b 3a 3d dd 61 86 3c 97 87 58 3d
       -0.0028030295 0.04549735 0.016404087 0.052863684
000200 5f 7b 72 bd 0e 30 cc 3c 8e 8a 9c bb 89 47 86 3c
       -0.059199687 0.024925258 -0.004777259 0.016391532
000210 02 f7 04 3b e3 91 01 3d c1 5e b1 3c 9b 12 d4 bc
       0.002028883 0.03163327 0.021651627 -0.025887778
000220 d1 a1 9a bd 24 af 23 bc 30 47 92 3d a4 2d 1d bd
       -0.07550395 -0.009990487 0.07142484 -0.038373604
000230 c8 4d 86 bd f8 d6 ba 3c 8c a9 b1 3d ad 22 21 3d
       -0.06557804 0.022807583 0.086749166 0.03933971
000240 05 95 13 bd b7 0e b4 bd 92 63 3c bd e8 43 6e bd
       -0.036030788 -0.08791869 -0.045993395 -0.05817023
000250 bd 07 b8 3d 4b 37 a4 3d 1c fa 0d bc e6 a5 9b 3d
       0.08985851 0.08018359 -0.008665588 0.07600002
000260 2a 4f 1d 3d 3f d4 86 bd 0c ac 98 bd 09 ec 85 3d
       0.038405575 -0.065834515 -0.0745469 0.06539161
000270 49 44 8a bd 6c a4 a7 bd 1e 19 dd ba 2e 65 81 bd
       -0.067513056 -0.08185658 -0.0016868447 -0.063181266
000280 9d 89 e7 3b 7d d3 2c 3c 50 e6 04 bd c8 4a 92 3d
       0.0070659653 0.01054847 -0.032446206 0.0714317
000290 55 eb ed 3c ee 06 41 bd 88 04 95 3d 43 d2 02 3d
       0.02904288 -0.04712575 0.07276255 0.031938802
0002a0 cd 7e 78 bd ab a3 9f 3c 85 d8 ac bd 1e a3 03 3c
       -0.0606678 0.019487223 -0.08439735 0.008034496
0002b0 c3 37 94 3d 96 60 23 3d a4 2d 2f 3d 0d 49 88 bd
       0.07237198 0.039887033 0.042768136 -0.06654558
0002c0 3a b3 a3 ba 41 2f cc bc af 93 f8 bb 4b 55 1f bd
       -0.0012489327 -0.024924876 -0.0075859646 -0.0388997
0002d0 7e 9b 8e 3d dc b9 bd 3b 1c f9 48 bb 89 1c 70 3d
       0.069632515 0.0057899784 -0.003066606 0.058620963
0002e0 a3 eb 47 3d 2b 94 2d bd d0 03 fb 3c e3 6d 45 3c
       0.048808705 -0.042377632 0.030641466 0.012050125
0002f0 75 94 1e 3d fb 1d 67 3b 73 db 90 3d 11 1e c2 3d
       0.0387158 0.0035265672 0.070731066 0.09478391
000300 c3 81 48 3c 43 27 98 bd f8 7a 62 bd dd b7 bc bc
       0.012237969 -0.074293636 -0.055293053 -0.023036892
000310 c9 26 98 3d a0 d6 bd 3b d1 45 e4 3c 28 6e a5 3d
       0.07429273 0.0057934076 0.027865322 0.08077651
000320 a9 58 9d 3d 76 b9 9e 3d e0 0f 28 bd eb a2 85 3d
       0.07682926 0.077502176 -0.041030765 0.06525215
000330 2d 93 a9 3d 76 11 95 3d c9 10 d2 38 60 8a 8d 3d
       0.08280025 0.07278721 0.00010016707 0.069111586
000340 12 1e 6f 3d 1b cf b0 bd a1 ac 16 bc 2d 29 f6 3c
       0.058378287 -0.08633252 -0.009196431 0.030048931
000350 b6 9a ba 3d dd 47 73 3d 66 3e 34 bc 43 25 62 3d
       0.0911154 0.059394706 -0.011001205 0.055211317
000360 03 88 fc bc 36 f4 96 3c b7 45 89 bc 03 49 c0 bd
       -0.030826574 0.018426996 -0.016756875 -0.09388926
000370 20 a1 99 bc 07 af 6f 3d e4 d1 16 bd 29 a1 36 3d
       -0.018753588 0.05851653 -0.03682126 0.044587288
000380 c5 31 aa bb 7e b6 93 3d d4 c0 b9 bd ad e8 3d bd
       -0.0051939213 0.07212542 -0.09069982 -0.046364475
000390 e0 37 3a 3d e4 35 57 3d 55 a0 7f bc 6a b3 1d bc
       0.045463443 0.05254163 -0.015602191 -0.009625295
0003a0 2d 0e ac bd 28 62 fd bc 87 cd 98 bd d1 a0 47 bd
       -0.08401141 -0.030930594 -0.07461076 -0.04873735
0003b0 d1 9e b7 3c 6a 3e 15 3c 46 87 66 bd 21 b8 86 bd
       0.022414597 0.009109119 -0.05628135 -0.065780886
0003c0 01 a9 75 bd 9b 68 4e 3b ed 23 cd 3b c9 c5 88 3d
       -0.059975628 0.0031495455 0.006260386 0.066783495
0003d0 10 4f 28 3c 1f 0d 6a bc 4b c4 98 3b 06 73 16 bd
       0.010272756 -0.014285355 0.004662072 -0.03673079
0003e0 67 86 9a bd 0f e7 90 3d de 29 90 bd ad 98 2a 3d
       -0.075451665 0.07075321 -0.070392355 0.04164951
0003f0 87 c2 93 3d 78 20 b6 3d a7 51 90 bd e6 8a a6 3d
       0.072148375 0.08892912 -0.07046824 0.081319615

fc2.bias f4 [84]
000000 4a 06 b0 bd 7e d6 81 bd 8a 47 be bc 67 e4 32 3c
       -0.085949495 -0.06339739 -0.023227472 0.010918713
000010 c3 a0 d5 3b 72 dd 3f 3e 95 d3 55 3e 5f b5 3d 3e
       0.0065194084 0.18736818 0.20881493 0.18526219
000020 e6 bc f1 3c 49 8c 37 3e b4 fe be 3c 64 24 a1 bd
       0.02950902 0.17924608 0.023314811 -0.07868269
000030 a6 e9 c8 bc cf 7a a5 3d 61 30 63 bd ff ce 7a bd
       -0.024525475 0.080800645 -0.05546606 -0.061232563
000040 63 ec 39 3d e5 dd ab bd c0 93 9a bd 95 11 38 bd
       0.04539145 -0.083919324 -0.07547712 -0.044938643
000050 f9 b7 b6 bd 18 31 2f 3d 9b 29 ad bd 7f df 97 bd
       -0.08921809 0.04277143 -0.08455201 -0.07415675
000060 24 e6 de bc 76 fc 87 3c be 6b eb 3c ee ef 4b bd
       -0.027209349 0.016599875 0.028737899 -0.04978936
000070 d7 31 f2 bb c3 b3 9d 3c 1e 4f 94 bd 91 8c 4d 3c
       -0.0073911953 0.019250756 -0.07241653 0.012545721
000080 2b 5e 68 bd d1 b5 63 bd 01 12 af 3b 2e 44 99 3c
       -0.05673043 -0.055593316 0.0053427224 0.018709268
000090 33 77 ef bb 49 56 a2 3c 14 45 a4 3c 9b 22 0f bc
       -0.007307911 0.019816535 0.02005247 -0.008736278
0000a0 05 96 b2 3d f0 94 59 3e eb 05 25 bd 2d 70 8a 3c
       0.0872002 0.21248221 -0.040288847 0.016899193
0000b0 d6 c7 6e bd 89 d8 48 3d 40 f3 2a 3d 86 e8 12 bd
       -0.058296047 0.04903463 0.041735888 -0.035866283
0000c0 7f a4 1c bc cf 94 4f 3d f2 92 22 3c 3f 06 0f 3b
       -0.009560703 0.050679024 0.00992273 0.0021823791
0000d0 8d ff 1c bd fc 3d 9a bc 99 3a 04 bd 2a f8 40 3d
       -0.03832965 -0.018828385 -0.032282446 0.047111668
0000e0 eb 5a 70 bd 63 fd 8a bd 9e 4c f0 bc 55 85 2e bd
       -0.058680456 -0.06786611 -0.029333409 -0.042607624
0000f0 a5 1f bb bd 3d 24 ef bc dd 5d 65 bd 2e 6e 45 3e
       -0.09136895 -0.029192084 -0.055997718 0.19280311
000100 6a ca 3a bd af 2b a0 3d a3 6e f4 ba c9 39 2d bc
       -0.045603193 0.07820832 -0.0018648695 -0.010572859
000110 3c 9a 4e bd a0 25 0e bb 72 1b bf 3d 31 e6 2b 3d
       -0.050440058 -0.0021689907 0.09331407 0.041967575
000120 b9 63 57 3e 85 eb 3f bc c2 c2 50 bd f1 4e 9a bc
       0.21034135 -0.011713867 -0.050966986 -0.01883647
000130 27 49 73 bc 91 97 08 3d fb c8 88 3d d3 73 2c 3e
       -0.014848984 0.03334767 0.06678959 0.16841058
000140 a4 d9 90 3c ef 0f c9 bd f9 ee 47 bc 08 54 d4 3d
       0.017681904 -0.09817492 -0.012202972 0.1036759

fc3.weight f4 [10, 84]
000000 c2 1d eb bd 92 39 cb bd fd 50 13 3d 9e 99 ba bc
       -0.11480285 -0.0992309 0.03596591 -0.022778329
000010 6e a3 c4 3d c0 de 6a 3b bb 38 09 be 37 91 6e bd
       0.09601484 0.0035838336 -0.13400547 -0.058243956
000020 02 18 7d bd 73 11 2c be 97 da 60 3d 49 51 bc 3d
       -0.061790474 -0.16803531 0.054895964 0.091951914
000030 19 c6 53 bd 35 e9 41 3c ae 6e 9c bd 45 85 b7 3d
       -0.051702593 0.011835386 -0.07638298 0.08960966
000040 20 57 b9 bd 35 6f a8 3d 08 96 18 3e f8 5e e1 3d
       -0.09049821 0.08224336 0.14900982 0.11004442
000050 01 a4 fb 3b d0 6f 85 bd 59 67 2d 3e 56 b3 e7 3d
       0.007679463 -0.06515467 0.16933955 0.113135025
000060 f3 4b 7f bd 44 ad 9a 3d 07 5b 58 3d 62 b6 42 bd
       -0.06232829 0.07552579 0.052821185 -0.047537215
000070 de f7 cb bc c9 37 2e 3c b1 66 30 bd 32 fa aa bc
       -0.024898466 0.010633417 -0.043066684 -0.020871256
000080 d2 31 26 bd a9 37 89 3c 5b fd 90 3d ff 88 a2 3d
       -0.040574856 0.016750174 0.07079574 0.07936286
000090 61 8c 19 bd 35 ed 26 3e e6 27 b5 3d b4 69 52 3d
       -0.03748739 0.16301425 0.08845501 0.051370338
0000a0 29 da af bd 0e 16 22 be e9 fc a1 3d e6 b6 7d 3d
       -0.085865326 -0.15828726 0.07909567 0.061942004
0000b0 28 7b fb 3d 72 1b 4e 3d 4c c6 42 3d dd e2 ce bd
       0.122793496 0.050319143 0.047552392 -0.101018645
0000c0 f5 29 da 3d 15 a9 cf 3d a8 7a 99 3d d2 4a e5 3d
       0.10652534 0.10139672 0.07494098 0.111959115
0000d0 5a d2 94 3d 35 7a 1e 3a ef 43 02 3c 2f 01 a1 bd
       0.07266684 0.0006045432 0.007950767 -0.07861554
0000e0 e3 5e b2 3d 97 14 22 39 ad 21 b8 3d 55 4e 5c 3d
       0.087095045 0.00015457194 0.08990798 0.05378564
0000f0 b4 24 a0 bd a6 f0 ab 3c 9a 72 a1 3d 25 5a 9d bd
       -0.078195006 0.020988774 0.07883187 -0.07683209
000100 9e 00 2d 3e 62 4e a8 bc c3 08 db 3d d9 d6 53 3d
       0.16894767 -0.020545188 0.106950305 0.051718567
000110 4d 95 d9 3d 13 b6 8b 3d 70 9a 25 3e 5e 01 d3 3d
       0.1062418 0.06821837 0.16172194 0.10302995
000120 95 85 a9 bb a6 8a 8a bd de b5 b3 3d 1f d5 8b 3b
       -0.005173395 -0.06764726 0.08774923 0.0042673494
000130 47 58 65 bd a1 c5 09 3d 6f ab a6 bd 48 5b 1d be
       -0.05599239 0.03363574 -0.08138167 -0.15366852
000140 c7 51 ca 3d bb 0d 29 bd 49 0a 3d 3d 59 a2 45 3d
       0.09878879 -0.04127286 0.046152387 0.04825053
000150 a7 2d 36 3e 69 53 26 3c 3b fc d4 3d b4 e6 79 bd
       0.17790852 0.0101517225 0.10399672 -0.06101103
000160 b0 48 43 3d 48 d2 3e be 15 22 e9 bd e5 68 1c be
       0.047676742 -0.18634903 -0.11383454 -0.15274389
000170 0a 9a 9d 3b cc a3 8d 3d 5c 36 f4 3c 30 2d 90 bd
       0.0048096227 0.069160074 0.029811077 -0.07039869
000180 ef 69 c9 3c 51 63 5c bd 1c 08 9b 3d 91 fd 05 3e
       0.024586646 -0.053805653 0.07569906 0.13085009
000190 1a 15 84 bd 05 e1 c5 3d 46 54 07 3e da 76 43 bd
       -0.06449337 0.0966206 0.13215742 -0.047720768
0001a0 d4 93 61 3c 57 9a 86 bd f0 b5 8f bd b5 0e 0c 3e
       0.013768155 -0.06572407 -0.07017124 0.13677485
0001b0 fc c3 06 bd 4c ea 7a 3d 91 f0 6f 3e 74 60 4e 3d
       -0.03290175 0.0612586 0.23431613 0.050384954
0001c0 79 33 18 be 51 90 a5 3d ba 31 c8 bd 34 4c 98 3c
       -0.14863385 0.08084167 -0.097751096 0.018591024
0001d0 17 ca 2a bd 52 a6 02 3e e2 c4 ea 3b 64 62 dc 3d
       -0.041696634 0.12758759 0.0071645835 0.10760954
0001e0 0f a5 fb 3d 39 74 80 bd d4 a2 de 3d 60 51 83 3b
       0.12287342 -0.06272168 0.10870901 0.0040075034
0001f0 d4 10 8b bd 29 f6 e5 ba e0 b2 ec 3d 78 dc a3 bd
       -0.06790319 -0.0017544675 0.11557555 -0.080010355
000200 ad 93 e0 3d 2d 96 dd bd 29 8b aa 3c ce 54 df bc
       0.10965667 -0.108196594 0.02081831 -0.027262118
000210 60 ed da bc a2 3c 32 3d 28 9a a7 3d 4c b1 e6 3d
       -0.026724517 0.043514855 0.081837 0.112642854
000220 bf a0 f5 bc 2a 53 46 3e 91 df 4f bb e6 fc 90 bd
       -0.029983876 0.19367662 -0.003171895 -0.070794865
000230 98 0c 8c 3d c5 82 18 3d 93 aa 22 bb 06 ff c4 3d
       0.068383396 0.037234087 -0.0024820908 0.09618954
000240 3d 45 b9 3b ce b6 d7 bc be 51 64 3d 03 9a e5 bd
       0.005654006 -0.026332285 0.055742018 -0.11211016
000250 12 84 15 3e df 10 a1 bd f0 55 91 bd a0 01 ce 3d
       0.14601162 -0.07864546 -0.070964694 0.10058904
000260 8a b9 09 3e d1 8b d6 bc 55 c5 0b bd 74 28 68 bd
       0.13449684 -0.026189717 -0.034123737 -0.056679204
000270 39 ba c7 bd 5d 49 4d bd 58 82 a9 bd c8 ac ce bc
       -0.09752316 -0.050118793 -0.08276814 -0.025228873
000280 fa 8d d1 bd 8c 22 dd bd 86 92 1a 3c 37 f1 c4 bd
       -0.10232158 -0.10797605 0.009434348 -0.096163206
000290 6a 3c 72 3d 21 43 f1 bb 0c 25 e3 bd 71 1e 23 bd
       0.059139647 -0.0073627387 -0.110910505 -0.039823953
0002a0 50 92 44 be b4 05 04 3c a6 71 81 bd bf c9 8f 3c
       -0.19196439 0.008058 -0.06320505 0.017552255
0002b0 51 75 20 3c e8 6f 87 bc dc 62 87 3d 0b 2f 0e 3e
       0.009793595 -0.016532853 0.06610653 0.13885133
0002c0 a3 f7 9b bd a3 48 2d 3d 50 18 9d bd 3c ba 9d bd
       -0.07615592 0.0423056 -0.07670653 -0.07701537
0002d0 47 f2 b0 bd 07 cb 37 3c e1 79 2a 3d 48 c1 38 bd
       -0.08639961 0.011217839 0.04162014 -0.045106202
0002e0 1f 30 4f 3d c4 b9 c7 bd 4f 86 e7 3d 06 4c 68 bc
       0.050583 -0.09752229 0.11304914 -0.014178282
0002f0 58 44 e0 bd d0 2e 94 3d ab b9 9d 3d 1e 3a 1f 3d
       -0.109505355 0.07235491 0.07701429 0.038873784
000300 bf a8 de 3d 10 a3 c1 3d cf d7 a4 bd b2 70 1e bd
       0.108720295 0.0945493 -0.08048975 -0.038681693
000310 3c 9c d5 3d 48 54 51 b9 c3 b9 ee bc 91 1a a7 3d
       0.1043019 -0.0001996319 -0.029141312 0.08159364
000320 b7 61 88 3d 85 8f 9b 3d 2c 1a c3 bd a4 bd 2d bd
       0.066592626 0.075957336 -0.09526476 -0.042417184
000330 56 57 2d bd fc 0c 28 3d 80 19 0e 3c aa d6 70 bd
       -0.04231962 0.041028008 0.008673072 -0.05879847
000340 04 49 42 bd 81 54 2f 3e 83 8b 54 bb 8f 5b b1 bc
       -0.047432914 0.1712208 -0.0032431788 -0.021650104
000350 82 22 0f bd d6 d6 77 3d 71 2c 21 bc c2 91 a7 bc
       -0.03494502 0.060507618 -0.009837256 -0.020455245
000360 ed f6 f4 3c 78 63 c3 bb 86 22 12 bd b1 ec 3f 3d
       0.0299029 -0.0059627853 -0.035677455 0.046856586
000370 e2 42 6c 3c d2 f6 ab bd 6d ce 22 3d 75 b0 db bc
       0.014420243 -0.083966866 0.039747644 -0.02681754
000380 ed 09 c8 3d 07 83 39 3d 91 a9 04 3c 54 89 ab bd
       0.09767518 0.045290973 0.008097068 -0.08375803
000390 cc e3 e0 bd 95 05 35 bd 7e 69 8e 3d b4 79 e3 3d
       -0.10980949 -0.044194777 0.06953715 0.111071974
0003a0 c9 5e 8c 3d db 5e 1c 3e 84 16 4a bc ad d6 ce bc
       0.06854016 0.1527056 -0.01233447 -0.02524885
0003b0 f2 66 bb 3c a6 80 95 bc 95 92 3c 3e cc 02 86 3d
       0.022876237 -0.01824982 0.18415292 0.06543502
0003c0 b6 cc 0d 3e 75 64 01 3e 23 49 22 3d 00 13 6d bc
       0.13847622 0.12635978 0.03962053 -0.014469862
0003d0 3c a7 38 3d 40 41 56 bd b6 fd 60 bd 94 77 eb 3d
       0.045081362 -0.05230832 -0.054929458 0.11497417
0003e0 a1 3d 0c 3d 3b d0 be bd 54 65 97 3b e1 fa 04 3e
       0.03423846 -0.093170606 0.0046202336 0.12986328
0003f0 00 5e c8 3d f8 f8 4b bc ae 09 a7 bd 67 14 8f bc
       0.09783554 -0.0124494955 -0.08156143 -0.017465783

fc3.bias f4 [10]
000000 7c 2b bf be f9 fb 6f be ee 4e b4 3d 3c e0 2d 3e
       -0.37337863 -0.23435964 0.08804117 0.1698007
000010 33 bf a1 3e 52 82 35 3e e4 30 96 3e 4c 12 bd 3d
       0.31591186 0.17725495 0.29334176 0.092320055
000020 5f 47 78 be 1a 58 51 be
       -0.24245976 -0.20443764
